…
          (std): Parameter containing: [torch.cuda.FloatTensor of size 7 (cuda:1)]
      )
    )
    (unnormalize_outputs): Unnormalize(
      (buffer_action): ParameterDict(
          (mean): Parameter containing: [torch.cuda.FloatTensor of size 7 (cuda:1)]
          (std): Parameter containing: [torch.cuda.FloatTensor of size 7 (cuda:1)]
      )
    )
    (model): VLAFlowMatching(
      (vlm_with_expert): SmolVLMWithExpertModel(
        (vlm): SmolVLMForConditionalGeneration(
          (model): SmolVLMModel(
            (vision_model): SmolVLMVisionTransformer(
              (embeddings): SmolVLMVisionEmbeddings(
                (patch_embedding): Conv2d(3, 768, kernel_size=(16, 16), stride=(16, 16), padding=valid)
                (position_embedding): Embedding(1024, 768)
              )
              (encoder): SmolVLMEncoder(
                (layers): ModuleList(
                  (0-11): 12 x SmolVLMEncoderLayer(
                    (self_attn): SmolVLMVisionAttention(
                      (k_proj): Linear(in_features=768, out_features=768, bias=True)
                      (v_proj): Linear(in_features=768, out_features=768, bias=True)
                      (q_proj): Linear(in_features=768, out_features=768, bias=True)
                      (out_proj): Linear(in_features=768, out_features=768, bias=True)
                    )
                    (layer_norm1): LayerNorm((768,), eps=1e-06, elementwise_affine=True)
                    (mlp): SmolVLMVisionMLP(
                      (activation_fn): PytorchGELUTanh()
                      (fc1): Linear(in_features=768, out_features=3072, bias=True)
                      (fc2): Linear(in_features=3072, out_features=768, bias=True)
                    )
                    (layer_norm2): LayerNorm((768,), eps=1e-06, elementwise_affine=True)
                  )
                )
              )
              (post_layernorm): LayerNorm((768,), eps=1e-06, elementwise_affine=True)
            )
            (connector): SmolVLMConnector(
              (modality_projection): SmolVLMSimpleMLP(
                (proj): Linear(in_features=12288, out_features=960, bias=False)
              )
            )
            (text_model): LlamaModel(
              (embed_tokens): Embedding(49280, 960, padding_idx=2)
              (layers): ModuleList(
                (0-15): 16 x LlamaDecoderLayer(
                  (self_attn): LlamaAttention(
                    (q_proj): Linear(in_features=960, out_features=960, bias=False)
                    (k_proj): Linear(in_features=960, out_features=320, bias=False)
                    (v_proj): Linear(in_features=960, out_features=320, bias=False)
                    (o_proj): Linear(in_features=960, out_features=960, bias=False)
                  )
                  (mlp): LlamaMLP(
                    (gate_proj): Linear(in_features=960, out_features=2560, bias=False)
                    (up_proj): Linear(in_features=960, out_features=2560, bias=False)
                    (down_proj): Linear(in_features=2560, out_features=960, bias=False)
                    (act_fn): SiLU()
                  )
                  (input_layernorm): LlamaRMSNorm((960,), eps=1e-05)
                  (post_attention_layernorm): LlamaRMSNorm((960,), eps=1e-05)
                )
              )
              (norm): LlamaRMSNorm((960,), eps=1e-05)
              (rotary_emb): LlamaRotaryEmbedding()
            )
          )
          (lm_head): Linear(in_features=960, out_features=49280, bias=False)
        )
        (lm_expert): LlamaModel(
          (embed_tokens): None
          (layers): ModuleList(
            (0): LlamaDecoderLayer(
              (self_attn): LlamaAttention(
                (q_proj): Linear(in_features=720, out_features=960, bias=False)
                (k_proj): Linear(in_features=720, out_features=320, bias=False)
                (v_proj): Linear(in_features=720, out_features=320, bias=False)
                (o_proj): Linear(in_features=960, out_features=720, bias=False)
              )
              (mlp): LlamaMLP(
                (gate_proj): Linear(in_features=720, out_features=2048, bias=False)
                (up_proj): Linear(in_features=720, out_features=2048, bias=False)
                (down_proj): Linear(in_features=2048, out_features=720, bias=False)
                (act_fn): SiLU()
              )
              (input_layernorm): LlamaRMSNorm((720,), eps=1e-05)
              (post_attention_layernorm): LlamaRMSNorm((720,), eps=1e-05)
            )
            (1): LlamaDecoderLayer(
              (self_attn): LlamaAttention(
                (q_proj): Linear(in_features=720, out_features=960, bias=False)
                (k_proj): Linear(in_features=320, out_features=320, bias=False)
                (v_proj): Linear(in_features=320, out_features=320, bias=False)
                (o_proj): Linear(in_features=960, out_features=720, bias=False)
              )
              (mlp): LlamaMLP(
                (gate_proj): Linear(in_features=720, out_features=2048, bias=False)
                (up_proj): Linear(in_features=720, out_features=2048, bias=False)
                (down_proj): Linear(in_features=2048, out_features=720, bias=False)
                (act_fn): SiLU()
              )
              (input_layernorm): LlamaRMSNorm((720,), eps=1e-05)
              (post_attention_layernorm): LlamaRMSNorm((720,), eps=1e-05)
            )
            (2): LlamaDecoderLayer(
              (self_attn): LlamaAttention(
                (q_proj): Linear(in_features=720, out_features=960, bias=False)
                (k_proj): Linear(in_features=720, out_features=320, bias=False)
                (v_proj): Linear(in_features=720, out_features=320, bias=False)
                (o_proj): Linear(in_features=960, out_features=720, bias=False)
              )
              (mlp): LlamaMLP(
                (gate_proj): Linear(in_features=720, out_features=2048, bias=False)
                (up_proj): Linear(in_features=720, out_features=2048, bias=False)
                (down_proj): Linear(in_features=2048, out_features=720, bias=False)
                (act_fn): SiLU()
              )
              (input_layernorm): LlamaRMSNorm((720,), eps=1e-05)
              (post_attention_layernorm): LlamaRMSNorm((720,), eps=1e-05)
            )
            (3): LlamaDecoderLayer(
              (self_attn): LlamaAttention(
                (q_proj): Linear(in_features=720, out_features=960, bias=False)
                (k_proj): Linear(in_features=320, out_features=320, bias=False)
                (v_proj): Linear(in_features=320, out_features=320, bias=False)
                (o_proj): Linear(in_features=960, out_features=720, bias=False)
              )
              (mlp): LlamaMLP(
                (gate_proj): Linear(in_features=720, out_features=2048, bias=False)
                (up_proj): Linear(in_features=720, out_features=2048, bias=False)
                (down_proj): Linear(in_features=2048, out_features=720, bias=False)
                (act_fn): SiLU()
              )
              (input_layernorm): LlamaRMSNorm((720,), eps=1e-05)
              (post_attention_layernorm): LlamaRMSNorm((720,), eps=1e-05)
            )
            (4): LlamaDecoderLayer(
              (self_attn): LlamaAttention(
                (q_proj): Linear(in_features=720, out_features=960, bias=False)
                (k_proj): Linear(in_features=720, out_features=320, bias=False)
                (v_proj): Linear(in_features=720, out_features=320, bias=False)
                (o_proj): Linear(in_features=960, out_features=720, bias=False)
              )
              (mlp): LlamaMLP(
                (gate_proj): Linear(in_features=720, out_features=2048, bias=False)
                (up_proj): Linear(in_features=720, out_features=2048, bias=False)
                (down_proj): Linear(in_features=2048, out_features=720, bias=False)
                (act_fn): SiLU()
              )
              (input_layernorm): LlamaRMSNorm((720,), eps=1e-05)
              (post_attention_layernorm): LlamaRMSNorm((720,), eps=1e-05)
            )
            (5): LlamaDecoderLayer(
              (self_attn): LlamaAttention(
                (q_proj): Linear(in_features=720, out_features=960, bias=False)
                (k_proj): Linear(in_features=320, out_features=320, bias=False)
                (v_proj): Linear(in_features=320, out_features=320, bias=False)
                (o_proj): Linear(in_features=960, out_features=720, bias=False)
              )
              (mlp): LlamaMLP(
                (gate_proj): Linear(in_features=720, out_features=2048, bias=False)
                (up_proj): Linear(in_features=720, out_features=2048, bias=False)
                (down_proj): Linear(in_features=2048, out_features=720, bias=False)
                (act_fn): SiLU()
              )
              (input_layernorm): LlamaRMSNorm((720,), eps=1e-05)
              (post_attention_layernorm): LlamaRMSNorm((720,), eps=1e-05)
            )
            (6): LlamaDecoderLayer(
              (self_attn): LlamaAttention(
                (q_proj): Linear(in_features=720, out_features=960, bias=False)
                (k_proj): Linear(in_features=720, out_features=320, bias=False)
                (v_proj): Linear(in_features=720, out_features=320, bias=False)
                (o_proj): Linear(in_features=960, out_features=720, bias=False)
              )
              (mlp): LlamaMLP(
                (gate_proj): Linear(in_features=720, out_features=2048, bias=False)
                (up_proj): Linear(in_features=720, out_features=2048, bias=False)
                (down_proj): Linear(in_features=2048, out_features=720, bias=False)
                (act_fn): SiLU()
              )
              (input_layernorm): LlamaRMSNorm((720,), eps=1e-05)
              (post_attention_layernorm): LlamaRMSNorm((720,), eps=1e-05)
            )
            (7): LlamaDecoderLayer(
              (self_attn): LlamaAttention(
                (q_proj): Linear(in_features=720, out_features=960, bias=False)
                (k_proj): Linear(in_features=320, out_features=320, bias=False)
                (v_proj): Linear(in_features=320, out_features=320, bias=False)
                (o_proj): Linear(in_features=960, out_features=720, bias=False)
              )
              (mlp): LlamaMLP(
                (gate_proj): Linear(in_features=720, out_features=2048, bias=False)
                (up_proj): Linear(in_features=720, out_features=2048, bias=False)
                (down_proj): Linear(in_features=2048, out_features=720, bias=False)
                (act_fn): SiLU()
              )
              (input_layernorm): LlamaRMSNorm((720,), eps=1e-05)
              (post_attention_layernorm): LlamaRMSNorm((720,), eps=1e-05)
            )
            (8): LlamaDecoderLayer(
              (self_attn): LlamaAttention(
                (q_proj): Linear(in_features=720, out_features=960, bias=False)
                (k_proj): Linear(in_features=720, out_features=320, bias=False)
                (v_proj): Linear(in_features=720, out_features=320, bias=False)
                (o_proj): Linear(in_features=960, out_features=720, bias=False)
              )
              (mlp): LlamaMLP(
                (gate_proj): Linear(in_features=720, out_features=2048, bias=False)
                (up_proj): Linear(in_features=720, out_features=2048, bias=False)
                (down_proj): Linear(in_features=2048, out_features=720, bias=False)
                (act_fn): SiLU()
              )
              (input_layernorm): LlamaRMSNorm((720,), eps=1e-05)
              (post_attention_layernorm): LlamaRMSNorm((720,), eps=1e-05)
            )
            (9): LlamaDecoderLayer(
              (self_attn): LlamaAttention(
                (q_proj): Linear(in_features=720, out_features=960, bias=False)
                (k_proj): Linear(in_features=320, out_features=320, bias=False)
                (v_proj): Linear(in_features=320, out_features=320, bias=False)
                (o_proj): Linear(in_features=960, out_features=720, bias=False)
              )
              (mlp): LlamaMLP(
                (gate_proj): Linear(in_features=720, out_features=2048, bias=False)
                (up_proj): Linear(in_features=720, out_features=2048, bias=False)
                (down_proj): Linear(in_features=2048, out_features=720, bias=False)
                (act_fn): SiLU()
              )
              (input_layernorm): LlamaRMSNorm((720,), eps=1e-05)
              (post_attention_layernorm): LlamaRMSNorm((720,), eps=1e-05)
            )
            (10): LlamaDecoderLayer(
              (self_attn): LlamaAttention(
                (q_proj): Linear(in_features=720, out_features=960, bias=False)
                (k_proj): Linear(in_features=720, out_features=320, bias=False)
                (v_proj): Linear(in_features=720, out_features=320, bias=False)
                (o_proj): Linear(in_features=960, out_features=720, bias=False)
              )
              (mlp): LlamaMLP(
                (gate_proj): Linear(in_features=720, out_features=2048, bias=False)
                (up_proj): Linear(in_features=720, out_features=2048, bias=False)
                (down_proj): Linear(in_features=2048, out_features=720, bias=False)
                (act_fn): SiLU()
              )
              (input_layernorm): LlamaRMSNorm((720,), eps=1e-05)
              (post_attention_layernorm): LlamaRMSNorm((720,), eps=1e-05)
            )
            (11): LlamaDecoderLayer(
              (self_attn): LlamaAttention(
                (q_proj): Linear(in_features=720, out_features=960, bias=False)
                (k_proj): Linear(in_features=320, out_features=320, bias=False)
                (v_proj): Linear(in_features=320, out_features=320, bias=False)
                (o_proj): Linear(in_features=960, out_features=720, bias=False)
              )
              (mlp): LlamaMLP(
                (gate_proj): Linear(in_features=720, out_features=2048, bias=False)
                (up_proj): Linear(in_features=720, out_features=2048, bias=False)
                (down_proj): Linear(in_features=2048, out_features=720, bias=False)
                (act_fn): SiLU()
              )
              (input_layernorm): LlamaRMSNorm((720,), eps=1e-05)
              (post_attention_layernorm): LlamaRMSNorm((720,), eps=1e-05)
            )
            (12): LlamaDecoderLayer(
              (self_attn): LlamaAttention(
                (q_proj): Linear(in_features=720, out_features=960, bias=False)
                (k_proj): Linear(in_features=720, out_features=320, bias=False)
                (v_proj): Linear(in_features=720, out_features=320, bias=False)
                (o_proj): Linear(in_features=960, out_features=720, bias=False)
              )
              (mlp): LlamaMLP(
                (gate_proj): Linear(in_features=720, out_features=2048, bias=False)
                (up_proj): Linear(in_features=720, out_features=2048, bias=False)
                (down_proj): Linear(in_features=2048, out_features=720, bias=False)
                (act_fn): SiLU()
              )
              (input_layernorm): LlamaRMSNorm((720,), eps=1e-05)
              (post_attention_layernorm): LlamaRMSNorm((720,), eps=1e-05)
            )
            (13): LlamaDecoderLayer(
              (self_attn): LlamaAttention(
                (q_proj): Linear(in_features=720, out_features=960, bias=False)
                (k_proj): Linear(in_features=320, out_features=320, bias=False)
                (v_proj): Linear(in_features=320, out_features=320, bias=False)
                (o_proj): Linear(in_features=960, out_features=720, bias=False)
              )
              (mlp): LlamaMLP(
                (gate_proj): Linear(in_features=720, out_features=2048, bias=False)
                (up_proj): Linear(in_features=720, out_features=2048, bias=False)
                (down_proj): Linear(in_features=2048, out_features=720, bias=False)
                (act_fn): SiLU()
              )
              (input_layernorm): LlamaRMSNorm((720,), eps=1e-05)
              (post_attention_layernorm): LlamaRMSNorm((720,), eps=1e-05)
            )
            (14): LlamaDecoderLayer(
              (self_attn): LlamaAttention(
                (q_proj): Linear(in_features=720, out_features=960, bias=False)
                (k_proj): Linear(in_features=720, out_features=320, bias=False)
                (v_proj): Linear(in_features=720, out_features=320, bias=False)
                (o_proj): Linear(in_features=960, out_features=720, bias=False)
              )
              (mlp): LlamaMLP(
                (gate_proj): Linear(in_features=720, out_features=2048, bias=False)
                (up_proj): Linear(in_features=720, out_features=2048, bias=False)
                (down_proj): Linear(in_features=2048, out_features=720, bias=False)
                (act_fn): SiLU()
              )
              (input_layernorm): LlamaRMSNorm((720,), eps=1e-05)
              (post_attention_layernorm): LlamaRMSNorm((720,), eps=1e-05)
            )
            (15): LlamaDecoderLayer(
              (self_attn): LlamaAttention(
                (q_proj): Linear(in_features=720, out_features=960, bias=False)
                (k_proj): Linear(in_features=320, out_features=320, bias=False)
                (v_proj): Linear(in_features=320, out_features=320, bias=False)
                (o_proj): Linear(in_features=960, out_features=720, bias=False)
              )
              (mlp): LlamaMLP(
                (gate_proj): Linear(in_features=720, out_features=2048, bias=False)
                (up_proj): Linear(in_features=720, out_features=2048, bias=False)
                (down_proj): Linear(in_features=2048, out_features=720, bias=False)
                (act_fn): SiLU()
              )
              (input_layernorm): LlamaRMSNorm((720,), eps=1e-05)
              (post_attention_layernorm): LlamaRMSNorm((720,), eps=1e-05)
            )
          )
          (norm): LlamaRMSNorm((720,), eps=1e-05)
          (rotary_emb): LlamaRotaryEmbedding()
        )
      )
      (state_proj): Linear(in_features=32, out_features=960, bias=True)
      (action_in_proj): Linear(in_features=32, out_features=720, bias=True)
      (action_out_proj): Linear(in_features=720, out_features=32, bias=True)
      (action_time_mlp_in): Linear(in_features=1440, out_features=720, bias=True)
      (action_time_mlp_out): Linear(in_features=720, out_features=720, bias=True)
    )
  )
)
(Pdb) policy.config
*** AttributeError: 'DistributedDataParallel' object has no attribute 'config'
(Pdb) policy.input_features
*** AttributeError: 'DistributedDataParallel' object has no attribute 'input_features'
(Pdb) quit()
[rank1]: Traceback (most recent call last):
[rank1]:   File "/home/jade_choghari/lerobot/src/lerobot/scripts/train_accelerate.py", line 368, in <module>
…
